Pytorch_Study/lesson12_pytorch_fundamental/net.pt (torch, 33584 bytes, 4 tensors)

hidden.weight f4 [256, 20]
00000000: 2b5b 30be 9e3d be3d a371 08be 07ed 643e
00000010: f508 cdbc 3412 96bd bd0d 5d3e 1fff 5d3d
00000020: 9da1 3c3e f0fa 43bd aebb 9bbd 3daf 6e3c
00000030: 0fed 95bd 7781 d43c c341 ca3d a2de ff3d
00000040: c264 873d cecc d43d e665 57be 35b0 503e
00000050: b3a2 08bc 07fd b1bd 8799 cb3d 18bb 453e
00000060: 3a61 ed3d f80a 46be 3095 bfbd 2e05 eb3d
00000070: 1caf 74bd cc71 2cbb 8c2d 343e 50fb 69bd
00000080: 9b9f 2fbe 9b72 47be ee48 43be ec19 3ebe
00000090: 96e7 06be 6234 3dbe 1368 de3d c102 edbd
000000a0: e2ad b13d df8c 093e 6cea c5bd 455b f93c
000000b0: d757 41bd d6ec 8ebd 5bf9 143e 16c3 533e
000000c0: 859f 04be 155e 36be 8e97 553e 0486 c93d
000000d0: f07a 5c3c 28e5 22be e620 743d 55e3 a53d
000000e0: e020 11be 4339 503d ea7f fa3c dcd1 f7bd
000000f0: c9a3 33bd 2e82 a73d 0b9a 49be f247 11be
00000100: 2a38 db3c 288b 9b3d 79a3 13bd 3c0b 1cbe
00000110: f503 4c3e b262 dd3d f7dd 4abe f40d a4bd
00000120: ac69 13ba 7902 6dbc 5f03 ef3d bb72 19be
00000130: df35 233e 0241 c33c 113e 2dbe 43ce 00be
00000140: 2a33 823c 851b 413d 421c 43be ba68 433d
00000150: 1730 373e dae8 43be a611 983d 003d 09be
00000160: bf99 623e 0ee6 d93d 6d4b 1cbe 0041 62be
00000170: 2d66 193e f49a 853d 6e82 90bd 4e42 f83c
00000180: b2a6 443d f7dd 793d 1990 443e f5b3 8fbd
00000190: 8b38 4e3e 933a fd3c c4bd a53d 8576 ccbd
000001a0: 1981 27be f295 b13d 246f 4abd 7828 0ebe
000001b0: 1df9 0e3e b4c6 e6b9 56cf 143e 6e20 523e
000001c0: b065 f63c 2bf0 09be 1708 2abe 16cf 18be
000001d0: 9254 14bc 71b2 d83c 4973 d6bd 5d64 08be
000001e0: a5d5 5fbe 51d5 303e d861 22bc 8e59 f53d
000001f0: bc0d 6bbd 0e4a 5d3e 76e8 033e 5fe9 17be
00000200: 2d22 713d e553 e5bd b3b5 493e f01f 94bd
00000210: aa5f d7bd 6de7 e8bd 6dc9 2bbe d589 3abd
00000220: 3300 58be 205e 033d fca9 ce3d dfe0 e1bd
00000230: 4677 a43d 36c3 4bbe f06a 08be 2d6e 053c
00000240: ef5d 55be 4ba2 0fbe 4e6a da3d ac9c 3cbd
00000250: 1edf 2f3e bd90 803d aaf1 c03d f3f6 d7bc
00000260: e73f 2b3c b6f3 3b3e 6db8 4abe faa2 3cbe
00000270: e6c7 343e 2006 3abe 847a c33d 40c5 033e
00000280: 169a 3e3e 1acd e5bd 6f0c e23c a0ae 5f3d
00000290: 09b8 bc3b e121 31be 1977 473e bd30 063e
000002a0: 5b7c 30be a21c 5c3d 280e a03b c9d8 543d
000002b0: ee02 973b c411 d83d 78b4 313e d259 8a3d
000002c0: 9be5 9abd 8bd9 163e 8486 1b3e 9c0d fbbd
000002d0: 061a 293e f164 44be b9f9 4b3d 455e 9c3d
000002e0: e24c 1a3e 4888 b4bc a5cd 9f3d 5fa2 f7bc
000002f0: ecc7 eebd d063 bebd 1b62 89bd 19ce fd3b
00000300: 44e2 2e3e 8d35 98bc aa2d 62bd c2bd 553d
00000310: 8284 5ebe a4ea 163d 361a 113e 45a1 4e3e
00000320: 79e1 16be a6f1 213d f157 4abd 730e aebd
00000330: 45e5 93bd 0e82 a73d 009b 4e3d f468 f33c
00000340: c019 523e fc8c cfbd b61f 093e b048 fdbd
00000350: 38eb 113e 1574 fd3d c2ca 41be d525 5dbe
00000360: 1af8 5c3d 59d3 dbbc f463 4bbe b85c 37be
00000370: 5c8a f63a ea56 eebc fc7a 243e 1c7e 443e
00000380: 8865 7cbc 380c 8c39 4fea 88bc 7579 5fbe
00000390: f92b ca3d 0450 2bbe 3f29 423d 05ba 0abe
000003a0: 30b5 adbd b49b a23d 61f0 47bd 2646 8cbd
000003b0: d1f1 18be 1f6c 30be ef77 8f3d 08ca d83d
000003c0: 89e8 173e 12f3 5cbe 78c9 593e c364 183e
000003d0: 1d93 bb3b 5d31 8a3d e20a 453e e010 d2bc
000003e0: ed55 a3bd 5167 403e e03c fc3d 440f 393d
000003f0: d668 3a3e 0a04 383e 6e7b 273d 20ff 35be
-0.17222278 0.09289096 -0.13324599 0.22356044 -0.025028685 -0.07327691 0.21587272 0.05419838
0.18421026 -0.047846735 -0.076041564 0.014568147 -0.07320606 0.02594064 0.09875824 0.12493636
0.06611015 0.10390626 -0.21034965 0.20379718 -0.008339572 -0.08690839 0.099413924 0.19309652
0.1159081 -0.19340122 -0.09354627 0.11475597 -0.05973731 -0.0026312945 0.175955 -0.057124436
-0.17150728 -0.19477312 -0.19070789 -0.18564576 -0.1317428 -0.18477014 0.10859694 -0.11572791
0.08675744 0.13432644 -0.09663853 0.030439029 -0.04720291 -0.069787666 0.14548247 0.20679888
-0.12951477 -0.17809327 0.20858595 0.098400146 0.013457045 -0.15907729 0.059601687 0.08100001
-0.14172697 0.05083586 0.030578572 -0.121005744 -0.04385737 0.08179127 -0.19687669 -0.14187601
0.02676018 0.07594901 -0.03604457 -0.1523866 0.19923384 0.1080984 -0.19811235 -0.08010474
-0.00056233513 -0.014465922 0.11670565 -0.14985172 0.15938519 0.02383471 -0.16918208 -0.12578683
0.015893538 0.047145385 -0.19053748 0.047707297 0.17889439 -0.19131795 0.07425241 -0.13402176
0.22128962 0.106395826 -0.15263148 -0.22095108 0.14980383 0.065236956 -0.070561275 0.030305054
0.048010536 0.061002698 0.19195594 -0.07016746 0.20138757 0.03091172 0.080928355 -0.09983543
-0.1635784 0.08671178 -0.0494224 -0.13882625 0.13962217 -0.00044017064 0.14532217 0.20520183
0.030077785 -0.13470523 -0.16604649 -0.14922747 -0.009053366 0.026452275 -0.10471208 -0.13319536
-0.21858843 0.17268874 -0.009911023 0.11979972 -0.057386145 0.21610281 0.12881646 -0.14835118
0.058870483 -0.11197642 0.19698219 -0.07232654 -0.10516293 -0.11372266 -0.16776057 -0.045541603
-0.21093826 0.032072186 0.10091016 -0.11029219 0.08030562 -0.19898686 -0.13322043 0.008143944
-0.20836614 -0.14026754 0.10664807 -0.04604785 0.17174956 0.06277607 0.09421094 -0.026362872
0.010452247 0.18354687 -0.19796915 -0.18421546 0.1765438 -0.18166399 0.095448524 0.12868214
0.18613467 -0.11220761 0.02759382 0.054609895 0.0057592434 -0.1729808 0.19479026 0.1310453
-0.17234938 0.053738244 0.0048845 0.051964555 0.0046085035 0.105502635 0.17354 0.06755413
-0.07563325 0.14731424 0.15188032 -0.12258455 0.16513833 -0.19179131 0.0497987 0.07635168
0.15068391 -0.02203764 0.078028955 -0.030228792 -0.11659226 -0.092963815 -0.06708165 0.007745516
0.17078501 -0.018580223 -0.05521933 0.05218292 -0.21730235 0.036844864 0.14170155 0.20178707
-0.14734448 0.039537095 -0.049400274 -0.0849885 -0.07221464 0.08179103 0.05044079 0.029713131
0.20517635 -0.101343125 0.13391003 -0.1236738 0.14249885 0.123756565 -0.18925002 -0.21596463
0.053947546 -0.026834177 -0.19862348 -0.17906463 0.0018809545 -0.029094178 0.1606254 0.19188732
-0.015405066 0.00026711985 -0.01671329 -0.21823676 0.09871668 -0.16729742 0.047402617 -0.13547523
-0.084818244 0.07939854 -0.048813228 -0.06849317 -0.14935996 -0.17228745 0.070052974 0.105854094
0.14834799 -0.21577099 0.2126826 0.14882188 0.0057243244 0.067476965 0.19242433 -0.025642812
-0.079753734 0.18789412 0.123162985 0.045180574 0.18204054 0.17970291 0.040889196 -0.17773104

hidden.bias f4 [256]
00000000: 63bd 20be 2875 3c3e f9dc 28be 5135 3ebe
00000010: a2e7 c93d 125a 52be 7d96 a1bd 665b 183c
00000020: 5ba1 973c 2e5a 043e 22c8 ab3c 2b72 32bd
00000030: dbff 113e 8fc5 a93b 4d8d 4b3e df4b 2a3e
00000040: 0f8b 383e 7dd5 18be 25d5 24be 1f21 64bd
00000050: 343a 5a3e d114 403e b69b 543e 7d96 b8bd
00000060: 51ef 28be 8076 21bd 115c 353e 784b 1ebe
00000070: 8f20 2d3e da0e 033e 9823 d5bd 9fc6 58be
00000080: 8e0f 40bc 1dc0 f03d 5d80 01bd 93d4 0dbe
00000090: 69ec 57bd 620a 3fbc 6d2e 36bd b28f 20be
000000a0: b336 4abe be97 2f3e c95e 453e f0aa 14be
000000b0: 7090 303c 906a a1bd 3cb1 0dbe 6b8c 20be
000000c0: 8903 363e e6b9 87bd a743 223e 8467 013d
000000d0: 1109 2a3e 5c21 123d 6d7b 52bc c6f1 09bd
000000e0: 9978 7e3d acfd 633e d0f7 553d 6cd6 873d
000000f0: 3f69 fa3d 6a0b 5c3d 306f 82bd 4728 563d
00000100: fca9 df3c a8fe 253e 303a 61be faff c8bd
00000110: 2652 66bd 6a82 d33d 977c 113d ebd7 233e
00000120: 7068 ecbd e84a c6bd c7c9 473e 106a fd3d
00000130: 63e2 dd3b 62ff 54bd fb6f c53d ea28 adbd
00000140: 39c7 263e f974 173c 56ff 173e dc2f 28be
00000150: e1f2 1c3e caad 503e 2c69 3a3e b81a 3a3e
00000160: be22 8a3c ef60 e53c 195b bbbd ed79 5bbe
00000170: 928b 5d3d dd54 423e 1578 9c3c 6d31 bc3a
00000180: 3a60 f73d 2e91 5c3e 4470 5e3d 6f8f 043e
00000190: 6451 083e 0be9 50bd 1427 573d 315c 5c3c
000001a0: ca4d 0fbe e86f 323e 598f d03d 3cb9 493e
000001b0: 8eca 3cbe 05ad df3d d094 293d 8499 32be
000001c0: c83f 9fbd bc45 2fbe fc25 c63c 51c2 253e
000001d0: e99c 5bbe e36e 453e 784d 1e3e d783 1f3e
000001e0: 814f 20be 59ee 27be f8ee 32bd 3890 23be
000001f0: 67e1 12be 6417 5fbe dff3 e63c c722 9cbc
00000200: 51aa 37be df1f 1cbe 77f5 423e e4ef de3c
00000210: 42d1 51bc b052 a53d 40cf c43c 8e35 5ebe
00000220: 7b20 673c 8c26 633e 72b2 3c3c 7de6 d83b
00000230: e428 003e cff5 7abc 072b fbbd 533a 853d
00000240: 2a3a 28be cf84 0ebe 1e1c 813d ab43 82bd
00000250: 0fe4 523e 5595 f7bd f5b1 0e3e 0472 943d
00000260: 3480 423e faa0 85bd 2a38 493e 92a2 d3bd
00000270: 71c3 803d cfe7 49be 0d67 f2bd b555 1f3d
00000280: e1e1 20be c800 653c 8b0c 34bd 76d9 32be
00000290: 3cb8 bebd 324a 7b3d ac0a d43c 7f8f eb3d
000002a0: 57b0 263c 3284 50be a021 e53d 2cc1 8c3d
000002b0: 5330 b53b 90f7 2a3d c932 59be 1ed2 55be
000002c0: f9b2 0bbd c1a8 fcbd 0657 813d 54bf b93b
000002d0: 16aa 11be 2182 c1bd 8386 0c3e 0219 11be
000002e0: 54cf 453e bb86 37be 41d9 e03c d661 693c
000002f0: add1 b2ba 4f5e 0abe d2aa 5c3d 5406 2fbd
00000300: 3ab2 f33d 0859 963d 406b e6bc ac19 42be
00000310: 4505 403b 6551 073e c3bc 1f3c ff4c 2abe
00000320: 763a 4f3d 1870 393e c83c feba 60c2 3abe
00000330: 0ac3 5c3e 83e7 e33d 0113 26bd 24d0 f7bd
00000340: f5a9 c73d 4c52 4f3e e796 0c3e 258c 15be
00000350: b65d d1bd e827 153e 56d1 203e 4cf0 92bd
00000360: 8191 703d 856c 12bd a812 dd3b 63cb c0bb
00000370: 5a89 4bbe 09bf d03d 0221 363d b3a0 4dbd
00000380: c246 a13a dc7e 4abe aa8d 8ebd 230e 3c3e
00000390: 62b8 5d3e 0252 4abe 1249 bcbc e9c3 00be
000003a0: f9ff 27bd a479 43be dbfb 353e 4194 c83d
000003b0: 4225 5ebe d36c 50be acf8 053d 566d 5d3e
000003c0: c8fb a9bd d4eb 423e e527 4fbe 45e1 013e
000003d0: 7847 33be 3159 11be 4b3e e7bd d22f 5c3e
000003e0: b769 8dbc e48b 17be 34b3 04be 832e b8bd
000003f0: 2075 eb3d ffae 503e fcb4 aabd ffec 48bd
-0.15697245 0.18404067 -0.16490544 -0.18575026 0.098586336 -0.20542172 -0.078900315 0.009299135
0.018509557 0.12925026 0.020969454 -0.04356591 0.14257757 0.0051810215 0.1987812 0.16630505
0.18021797 -0.1492519 -0.16096933 -0.05569565 0.21311265 0.18757941 0.20762524 -0.09013078
-0.16497542 -0.03941965 0.17710902 -0.15458477 0.16906951 0.12798634 -0.104071796 -0.21169518
-0.0117224585 0.11755393 -0.031616557 -0.13850622 -0.052715693 -0.01166019 -0.04447787 -0.15679815
-0.19747429 0.17147729 0.19274439 -0.14518332 0.010776624 -0.07881653 -0.13837141 -0.15678565
0.17774786 -0.06627254 0.1584612 0.03159286 0.16605021 0.035676345 -0.01284681 -0.03367784
0.06212673 0.22264737 0.052238286 0.066326946 0.12227105 0.053721823 -0.063688636 0.052284505
0.027302735 0.16210425 -0.21994853 -0.09814449 -0.056230687 0.10327609 0.03551921 0.16000335
-0.11543357 -0.09682256 0.19510566 0.123737454 0.006771372 -0.052001365 0.09640499 -0.08455069
0.16286935 0.009244197 0.14843497 -0.16424507 0.15327026 0.20378795 0.18204182 0.18174255
0.01686227 0.028000323 -0.09148235 -0.2143323 0.054088183 0.18977685 0.019100228 0.0014357992
0.12078901 0.21539757 0.054306284 0.1294534 0.13312298 -0.051003497 0.052527502 0.0134497145
-0.13994518 0.17425501 0.101835914 0.19699568 -0.18436643 0.10921673 0.041401684 -0.17441374
-0.07775837 -0.17116445 0.024188034 0.16187407 -0.21446575 0.19280581 0.1545924 0.15577637
-0.15655328 -0.16399516 -0.04368493 -0.15972984 -0.14343797 -0.21786267 0.028192459 -0.019059552
-0.17936064 -0.15246533 0.1903895 0.027213998 -0.012806239 0.08072412 0.024024606 -0.21700117
0.014106865 0.22182673 0.011517154 0.006619273 0.12515599 -0.015317394 -0.12264066 0.06505265
-0.16428438 -0.1391785 0.06304191 -0.06360563 0.2059481 -0.1208903 0.13935073 0.07248309
0.18994218 -0.065248445 0.19650331 -0.10333742 0.062872775 -0.19717334 -0.118360616 0.038900096
-0.15711166 0.013977237 -0.043957274 -0.17465767 -0.09312484 0.061350055 0.025883995 0.11501979
0.010173879 -0.20362929 0.11188054 0.06872782 0.0055294423 0.04174 -0.21210779 -0.20880935
-0.03410623 -0.12336875 0.063154265 0.00566856 -0.14225039 -0.09448648 0.13723187 -0.14169696
0.1931737 -0.1792249 0.027447345 0.014244517 -0.001364281 -0.13512538 0.053873844 -0.042730644
0.118992284 0.073412 -0.028127313 -0.18955106 0.0029300016 0.13214643 0.009749594 -0.16630934
0.050592862 0.18109167 -0.0019396776 -0.1823821 0.21558776 0.11128142 -0.040545467 -0.121002465
0.097492136 0.20246238 0.1372944 -0.14604242 -0.10222952 0.14566004 0.15704855 -0.07174739
0.058732513 -0.035748024 0.0067466088 -0.0058836206 -0.19876614 0.10192687 0.044465072 -0.050202083
0.0012304413 -0.19774956 -0.06960614 0.18364768 0.21652368 -0.19757846 -0.022984061 -0.12574734
-0.0410156 -0.19089371 0.17771856 0.09793902 -0.216939 -0.20354013 0.032707855 0.2162374
-0.082999766 0.19035274 -0.20230062 0.1268359 -0.17507732 -0.1419418 -0.11291178 0.21502617
-0.017262323 -0.14799458 -0.12958986 -0.089932464 0.11496949 0.20379256 -0.08335301 -0.049054142

output.weight f4 [10, 256]
00000000: 1ccc 843c 48ec 713c 7658 0ebd 241b 10bd
00000010: 5cbc acbc 68fe 203d ac0e fb3c f824 11bd
00000020: 8cbc 2fbd 4a38 20bd b080 77bc 2af6 1a3d
00000030: 0040 55bd a0ea 373c 5025 44bd e04c 0cbc
00000040: 1068 583d 6015 1b3c 1812 4fbd 0c9b 55bd
00000050: 7a1e 703d b017 3cbd b017 7f3d f017 3f3c
00000060: 5c8d fd3c 808e 62bd 60b0 76bd 5c85 71bd
00000070: 7243 4e3d e843 143c 80f5 9a3a 24e3 623d
00000080: 4827 11bc f43d 69bd 24a7 7b3d 1806 abbc
00000090: 6081 02bc 02a1 3d3d feb1 7dbd 24d4 01bd
000000a0: 180c f03c e026 5bbb 98f1 5cbd d8da e43c
000000b0: 5802 d5bc 04e2 9f3c ec64 4fbd 20e0 4dbb
000000c0: 069a 29bd 9cd9 f83c b41f a43c b036 1d3c
000000d0: f66c 123d f05f 123d b823 233c 8452 bf3c
000000e0: 5e99 623d 4aef 4ebd 784e 7cbc 38b1 7c3d
000000f0: a4e2 7f3d 647e 213d 1ad1 263d 06a6 2fbd
00000100: 40c3 4dbb d645 7d3d 0c5f b13c 0cd3 223d
00000110: 506d babc 28f2 7dbc 3042 d8bc 4e48 4abd
00000120: 004f d7ba 44cf 70bd faed 313d 9674 7b3d
00000130: 4403 a2bc 1457 50bd b4aa 8b3c 5e8a 01bd
00000140: 968a 023d 1401 043d 8066 bfbc 9c95 15bd
00000150: 5077 0f3d 8077 e73a d6c0 01bd 8683 473d
00000160: e015 3f3d e093 febc 10de 4dbd 86b3 7ebd
00000170: a0f2 f5bb 78d3 353c 10f0 153c 260a 333d
00000180: 603c 7fbc 9a39 5ebd 1c55 9a3c c88f 6ebd
00000190: daa6 7abd 8496 10bd e4c5 1e3d f86d f6bc
000001a0: 5823 683c e0be fa3c bcc7 69bd 6acb 75bd
000001b0: 4043 febc 5478 7dbd 3cb5 54bd 3067 f1bb
000001c0: 5259 4d3d 505f 0abc 628b 0fbd e096 a13b
000001d0: 00f2 77bc 344b 91bc cc26 e83c 1a1e 773d
000001e0: 6696 7bbd 08e3 933c 246a 9bbc b2f0 093d
000001f0: 204a dc3b 2082 503d e22e 0cbd 52f8 6b3d
00000200: 6a50 5ebd fc4b be3c 1ebc 443d e069 0dbb
00000210: a0d0 92bb c8ae 87bc 888a 43bd 80fb ff3b
00000220: 5e56 30bd 2c65 fd3c 50db f3bc 38b4 703c
00000230: 5e45 023d 8497 35bd 7c09 3f3d 40fb 6bbd
00000240: 048c 5bbd 687f 9a3c ccea ec3c a2fc 29bd
00000250: 3cac 013d 0ca4 71bd 88bd b93c deb4 0bbd
00000260: 48fe e13c 88ef 43bd 90ba bebc 00d3 81bb
00000270: 8cf0 f9bc 0063 53ba 9ef5 29bd ccda df3c
00000280: 4087 17bb 4cdf b33c 4c21 6abd c091 60bd
00000290: aaf7 5dbd 28e0 253d d04f b43c b810 5dbc
000002a0: dc96 1f3d 3049 9dbc b4e5 5a3d 10b3 7c3c
000002b0: 5ad8 3e3d 4472 70bd 20b8 733d 8e4b 3cbd
000002c0: 9816 eb3c cea1 713d 820d 513d 18bf 543d
000002d0: 48dd 1abc f023 eb3c a41a af3c 1adb 2bbd
000002e0: 1c26 523d 7cc6 37bd bcfc a3bc fabb 6e3d
000002f0: 00f8 15b9 6049 683d 5c21 58bd cad2 22bd
00000300: 3cad 41bd a006 28bd 981e 903c 66ba 0c3d
00000310: 080f 4ebd f6be 4abd d6a2 0a3d d0df c13b
00000320: 86dd 3f3d f0cc 9cbc 10d6 b5bc 3027 a3bc
00000330: 4421 f8bc 30af 293c 907c d7bb 1042 d4bc
00000340: 4c73 013d ac72 f53c d644 2bbd 1e43 463d
00000350: 3805 5ebd 2456 823c f46b d7bc 6c71 bdbc
00000360: a40b eebc 70a1 00bd 28ed 6c3c 2863 88bc
00000370: e055 f3bc 5e62 57bd 1498 e0bc 38f6 31bc
00000380: 5459 043d 602d 73bb 080d e73c 66c3 743d
00000390: 8c90 ba3c 2896 913c a29a 0fbd 8033 0ebc
000003a0: e6cf 6f3d 1cb7 aebc d2dd 6bbd 8ecd 55bd
000003b0: fa57 7c3d b867 343d 6430 f1bc 7031 b3bb
000003c0: 38a3 6a3c e84a 973c 7ce2 3e3d 509d 6dbd
000003d0: 2ee2 5abd 7eec 523d 8497 563d a089 d1bc
000003e0: f09c fe3b 26b9 663d 006c 77b9 2e84 693d
000003f0: 80ac 82bc 3cda 213d cc16 bbbc b8b3 65bd
0.016210608 0.0147658065 -0.03475233 -0.035182133 -0.02108591 0.03930512 0.030646645 -0.035435647
-0.04290442 -0.03911618 -0.015106365 0.037832417 -0.05206299 0.011225373 -0.047887146 -0.00856325
0.052833617 0.009465545 -0.050554365 -0.052149817 0.058622815 -0.045921028 0.06227845 0.011663422
0.030951194 -0.05531168 -0.060226798 -0.058965072 0.05035729 0.009049393 0.0011822432 0.0553924
-0.008859463 -0.05694385 0.061438695 -0.02087693 -0.007965416 0.046296127 -0.061937325 -0.031696454
0.029302642 -0.003343992 -0.05394134 0.027936384 -0.026002094 0.019516952 -0.050633356 -0.0031414106
-0.041406654 0.030377202 0.020034648 0.009595558 0.035748444 0.035736024 0.0099572465 0.023354776
0.055322044 -0.050521173 -0.015399568 0.061692446 0.062472 0.039427176 0.04072676 -0.04288294
-0.0031396896 0.06183418 0.021651767 0.03975205 -0.022757202 -0.015499629 -0.026398748 -0.04938536
-0.0016426742 -0.058791414 0.043439843 0.061390482 -0.019776948 -0.050864294 0.017049171 -0.031626098
0.031870447 0.03222759 -0.023364305 -0.03651963 0.035025895 0.0017659515 -0.031678043 0.048709415
0.04665172 -0.031076372 -0.050260603 -0.062182926 -0.00750573 0.011097781 0.009151474 0.04371085
-0.015578359 -0.054254152 0.018839411 -0.05824259 -0.06119428 -0.035299793 0.038762942 -0.030081734
0.014168583 0.030608594 -0.057075247 -0.060008444 -0.031037927 -0.061882332 -0.05193065 -0.0073670372
0.05013401 -0.008445576 -0.035045035 0.004931316 -0.015133381 -0.017736055 0.028338812 0.06033144
-0.061422728 0.018052593 -0.01897151 0.03367681 0.0067227036 0.050905347 -0.0342244 0.057609864
-0.054275908 0.023229592 0.048030965 -0.0021578 -0.0044804364 -0.016562834 -0.047739536 0.0078119636
-0.043051116 0.030932032 -0.029767662 0.014691405 0.031804435 -0.04433395 0.046639904 -0.057612658
-0.053600326 0.01885958 0.028920554 -0.041500695 0.031658396 -0.058994338 0.022673383 -0.034108035
0.027587071 -0.047835857 -0.02328232 -0.0039619207 -0.03051021 -0.00080637634 -0.041494004 0.02732601
-0.0023121387 0.021957062 -0.05716066 -0.054826498 -0.05419127 0.040496975 0.022010714 -0.013492756
0.03896223 -0.019199938 0.05344172 0.015423551 0.046593048 -0.058702722 0.059501767 -0.045970492
0.028697297 0.0589922 0.051038273 0.051940054 -0.009452172 0.02870366 0.021375008 -0.041957
0.051305875 -0.044867024 -0.020017974 0.058284737 -0.00014302135 0.0567106 -0.05276619 -0.039751805
-0.04728435 -0.041021943 0.017592713 0.03435745 -0.050307304 -0.04949852 0.0338467 0.005916573
0.04684212 -0.01914069 -0.0221968 -0.019916147 -0.0302893 0.010356709 -0.0065761283 -0.025910407
0.031604096 0.029961906 -0.041813694 0.04840385 -0.054204196 0.015910216 -0.026296593 -0.023125373
-0.029058285 -0.03140396 0.014460839 -0.016648844 -0.029704034 -0.052584045 -0.027416267 -0.010861926
0.032311752 -0.0037105903 0.028204456 0.05975666 0.022774003 0.017771795 -0.03505958 -0.008679271
0.058547877 -0.021327548 -0.05758459 -0.052197985 0.06160734 0.044044226 -0.02944202 -0.00546854
0.014321141 0.018468335 0.04660271 -0.058011353 -0.053438358 0.051495068 0.05239059 -0.02557832
0.0077701733 0.056328915 -0.00023595989 0.057010822 -0.015951395 0.039514765 -0.022838019 -0.056079596

output.bias f4 [10]
00000000: 5ae3 7c3d 1c7b 053d cc70 773d 203d 583d
00000010: ce92 0e3d 4088 e33a e605 5a3d b6d1 27bd
00000020: 00b1 56ba 2073 823c
0.061740257 0.03258811 0.060410306 0.05279267 0.034807973 0.0017359331 0.05322828 -0.04097148
-0.0008189827 0.015924037
